(208160, 2)
(50000, 2)
Total 400000 word vectors in Glove 6B 100d.
_________________________________________________________________
Layer (type)                 Output Shape              Param #   
=================================================================
embedding_1 (Embedding)      (None, 100, 100)          10215800  
_________________________________________________________________
conv1d_1 (Conv1D)            (None, 100, 16)           4816      
_________________________________________________________________
max_pooling1d_1 (MaxPooling1 (None, 25, 16)            0         
_________________________________________________________________
flatten_1 (Flatten)          (None, 400)               0         
_________________________________________________________________
dense_1 (Dense)              (None, 16)                6416      
_________________________________________________________________
dense_2 (Dense)              (None, 1)                 17        
=================================================================
Total params: 10,227,049
Trainable params: 11,249
Non-trainable params: 10,215,800
_________________________________________________________________
Train on 208160 samples, validate on 50000 samples
Epoch 1/100

   512/208160 [..............................] - ETA: 10:00 - loss: 6.4712 - acc: 0.5176
  7168/208160 [>.............................] - ETA: 42s - loss: 5.7022 - acc: 0.5557  
…
