finished importing
[0 1 2 3 4]
[0 1 2 3 4]
Total 400000 word vectors in Glove 6B 100d.
_________________________________________________________________
Layer (type)                 Output Shape              Param #   
=================================================================
embedding_1 (Embedding)      (None, 130, 100)          10135800  
_________________________________________________________________
conv1d_1 (Conv1D)            (None, 130, 32)           9632      
_________________________________________________________________
max_pooling1d_1 (MaxPooling1 (None, 65, 32)            0         
_________________________________________________________________
flatten_1 (Flatten)          (None, 2080)              0         
_________________________________________________________________
dense_1 (Dense)              (None, 32)                66592     
_________________________________________________________________
dense_2 (Dense)              (None, 5)                 165       
=================================================================
Total params: 10,212,189
Trainable params: 76,389
Non-trainable params: 10,135,800
_________________________________________________________________
Train on 218218 samples, validate on 50000 samples
Epoch 1/100

   512/218218 [..............................] - ETA: 10:05 - loss: 57.2245 - acc: 0.2422
  6144/218218 [..............................] - ETA: 50s - loss: 46.9778 - acc: 0.2355  
…
