finished importing
[0 1 2 3 4]
[0 1 2 3 4]
Total 400000 word vectors in Glove 6B 100d.
__________________________________________________________________________________________________
Layer (type)                    Output Shape         Param #     Connected to                     
==================================================================================================
input_1 (InputLayer)            (None, 130)          0                                            
__________________________________________________________________________________________________
embedding_1 (Embedding)         (None, 130, 100)     10135800    input_1[0][0]                    
__________________________________________________________________________________________________
conv1d_1 (Conv1D)               (None, 128, 8)       2408        embedding_1[0][0]                
__________________________________________________________________________________________________
conv1d_2 (Conv1D)               (None, 127, 8)       3208        embedding_1[0][0]                
__________________________________________________________________________________________________
conv1d_3 (Conv1D)               (None, 126, 8)       4008        embedding_1[0][0]                
__________________________________________________________________________________________________
activation_1 (Activation)       (None, 128, 8)       0           conv1d_1[0][0]                   
__________________________________________________________________________________________________
activation_2 (Activation)       (None, 127, 8)       0           conv1d_2[0][0]                   
__________________________________________________________________________________________________
activation_3 (Activation)       (None, 126, 8)       0           conv1d_3[0][0]                   
__________________________________________________________________________________________________
global_max_pooling1d_1 (GlobalM (None, 8)            0           activation_1[0][0]               
__________________________________________________________________________________________________
global_max_pooling1d_2 (GlobalM (None, 8)            0           activation_2[0][0]               
__________________________________________________________________________________________________
global_max_pooling1d_3 (GlobalM (None, 8)            0           activation_3[0][0]               
__________________________________________________________________________________________________
concatenate_1 (Concatenate)     (None, 24)           0           global_max_pooling1d_1[0][0]     
                                                                 global_max_pooling1d_2[0][0]     
                                                                 global_max_pooling1d_3[0][0]     
__________________________________________________________________________________________________
dropout_1 (Dropout)             (None, 24)           0           concatenate_1[0][0]              
__________________________________________________________________________________________________
dense_1 (Dense)                 (None, 4)            100         dropout_1[0][0]                  
__________________________________________________________________________________________________
dense_2 (Dense)                 (None, 5)            25          dense_1[0][0]                    
==================================================================================================
Total params: 10,145,549
Trainable params: 9,749
Non-trainable params: 10,135,800
__________________________________________________________________________________________________
Train on 218218 samples, validate on 50000 samples
Epoch 1/100

   512/218218 [..............................] - ETA: 13:21 - loss: 3.9450 - acc: 0.2324
…
