finished importing
[0 1 2 3 4]
[0 1 2 3 4]
Total 400000 word vectors in Glove 6B 100d.
__________________________________________________________________________________________________
Layer (type)                    Output Shape         Param #     Connected to                     
==================================================================================================
input_1 (InputLayer)            (None, 130)          0                                            
__________________________________________________________________________________________________
embedding_1 (Embedding)         (None, 130, 100)     10135800    input_1[0][0]                    
__________________________________________________________________________________________________
conv1d_1 (Conv1D)               (None, 128, 128)     38528       embedding_1[0][0]                
__________________________________________________________________________________________________
conv1d_2 (Conv1D)               (None, 127, 128)     51328       embedding_1[0][0]                
__________________________________________________________________________________________________
conv1d_3 (Conv1D)               (None, 126, 128)     64128       embedding_1[0][0]                
__________________________________________________________________________________________________
conv1d_4 (Conv1D)               (None, 125, 128)     76928       embedding_1[0][0]                
__________________________________________________________________________________________________
batch_normalization_1 (BatchNor (None, 128, 128)     512         conv1d_1[0][0]                   
__________________________________________________________________________________________________
batch_normalization_2 (BatchNor (None, 127, 128)     512         conv1d_2[0][0]                   
__________________________________________________________________________________________________
batch_normalization_3 (BatchNor (None, 126, 128)     512         conv1d_3[0][0]                   
__________________________________________________________________________________________________
batch_normalization_4 (BatchNor (None, 125, 128)     512         conv1d_4[0][0]                   
__________________________________________________________________________________________________
activation_1 (Activation)       (None, 128, 128)     0           batch_normalization_1[0][0]      
__________________________________________________________________________________________________
activation_2 (Activation)       (None, 127, 128)     0           batch_normalization_2[0][0]      
__________________________________________________________________________________________________
activation_3 (Activation)       (None, 126, 128)     0           batch_normalization_3[0][0]      
__________________________________________________________________________________________________
activation_4 (Activation)       (None, 125, 128)     0           batch_normalization_4[0][0]      
__________________________________________________________________________________________________
max_pooling1d_1 (MaxPooling1D)  (None, 64, 128)      0           activation_1[0][0]               
__________________________________________________________________________________________________
max_pooling1d_2 (MaxPooling1D)  (None, 63, 128)      0           activation_2[0][0]               
__________________________________________________________________________________________________
max_pooling1d_3 (MaxPooling1D)  (None, 63, 128)      0           activation_3[0][0]               
__________________________________________________________________________________________________
max_pooling1d_4 (MaxPooling1D)  (None, 62, 128)      0           activation_4[0][0]               
__________________________________________________________________________________________________
concatenate_1 (Concatenate)     (None, 252, 128)     0           max_pooling1d_1[0][0]            
                                                                 max_pooling1d_2[0][0]            
                                                                 max_pooling1d_3[0][0]            
                                                                 max_pooling1d_4[0][0]            
__________________________________________________________________________________________________
dropout_1 (Dropout)             (None, 252, 128)     0           concatenate_1[0][0]              
__________________________________________________________________________________________________
dense_1 (Dense)                 (None, 252, 256)     33024       dropout_1[0][0]                  
__________________________________________________________________________________________________
batch_normalization_5 (BatchNor (None, 252, 256)     1024        dense_1[0][0]                    
__________________________________________________________________________________________________
dropout_2 (Dropout)             (None, 252, 256)     0           batch_normalization_5[0][0]      
__________________________________________________________________________________________________
dense_2 (Dense)                 (None, 252, 128)     32896       dropout_2[0][0]                  
__________________________________________________________________________________________________
batch_normalization_6 (BatchNor (None, 252, 128)     512         dense_2[0][0]                    
__________________________________________________________________________________________________
dropout_3 (Dropout)             (None, 252, 128)     0           batch_normalization_6[0][0]      
__________________________________________________________________________________________________
flatten_1 (Flatten)             (None, 32256)        0           dropout_3[0][0]                  
__________________________________________________________________________________________________
dense_3 (Dense)                 (None, 5)            161285      flatten_1[0][0]                  
==================================================================================================
Total params: 10,597,501
Trainable params: 10,595,709
Non-trainable params: 1,792
__________________________________________________________________________________________________
Train on 218218 samples, validate on 50000 samples
Epoch 1/100

   512/218218 [..............................] - ETA: 38:18 - loss: 658.9037 - acc: 0.2070
…
