(208160, 2)
(50000, 2)
Total 400000 word vectors in Glove 6B 100d.
_________________________________________________________________
Layer (type)                 Output Shape              Param #   
=================================================================
input_1 (InputLayer)         (None, 100)               0         
_________________________________________________________________
embedding_1 (Embedding)      (None, 100, 100)          10215800  
_________________________________________________________________
bidirectional_1 (Bidirection (None, 100, 64)           34048     
_________________________________________________________________
max_pooling1d_1 (MaxPooling1 (None, 25, 64)            0         
_________________________________________________________________
dense_1 (Dense)              (None, 25, 128)           8320      
_________________________________________________________________
dropout_1 (Dropout)          (None, 25, 128)           0         
_________________________________________________________________
flatten_1 (Flatten)          (None, 3200)              0         
_________________________________________________________________
dense_2 (Dense)              (None, 1)                 3201      
=================================================================
Total params: 10,261,369
Trainable params: 45,569
Non-trainable params: 10,215,800
_________________________________________________________________
Train on 208160 samples, validate on 50000 samples
Epoch 1/100

   512/208160 [..............................] - ETA: 28:08 - loss: 23.2066 - acc: 0.5586
  1024/208160 [..............................] - ETA: 14:58 - loss: 23.0522 - acc: 0.5439
…
